lightning_logs/FCN/checkpoints/epoch=49-step=49.ckpt (torch, 461634 bytes, 24 tensors)

model.fc.0.weight f4 [512, 68]
0.18055443 0.018090462 0.029461525 0.13366437 -0.17960836 0.06525471 -0.24196781 0.04210615
-0.026560817 -0.0027692695 0.040545825 0.072966926 0.07670512 0.053898748 -0.026967827 0.14683263
0.05868181 0.21614328 0.09601457 -0.014955214 -0.05210766 0.010276916 -0.06402456 -0.008576973
-0.079095334 0.025132196 -0.12459717 0.16972731 0.09742629 -0.020117316 0.012288552 0.10653935
0.124713846 -0.028910145 -0.026197467 0.077124774 0.04184171 0.027645119 0.031324245 0.1143893
-0.06214636 -0.1160063 0.052158725 -0.026638487 0.0069913324 -0.03569361 -0.14487506 -0.08561569
0.015251391 -0.04318736 -0.024940997 0.06267845 0.042261627 0.08003136 0.034383405 -0.124750085
0.08460993 0.059851013 -0.0060061724 -0.119196005 -0.11062166 -0.07061135 0.070076846 0.104413785
-0.16343388 0.15145138 0.08039716 0.010597504 -0.12425403 -0.23224355 0.13602571 0.11118024
0.07383652 -0.064935856 0.059742153 0.04080706 0.19207157 -0.09800171 0.14359157 -0.06608594
0.011335407 -0.12185945 0.14032611 -0.10068152 0.06547487 -0.14061679 -0.05493152 -0.01865067
-0.031476516 0.041679762 0.008941302 0.15648045 -0.0011908985 0.063052304 -0.033953074 -0.07867535
0.08872068 -0.1536251 0.09881698 0.050344557 0.0012776527 -0.18194108 0.13713992 0.11899869
-0.07251003 -0.026955858 0.025843183 -0.10218732 -0.14842461 0.033496767 -0.11598174 0.07150529
-0.042839542 0.04933756 0.18576251 0.17547855 0.13979085 -0.02527499 -0.008743491 -0.05964419
-0.15520352 -0.22054383 0.004344439 0.015045309 0.067826755 -0.03588641 0.0025076654 0.034624394
-0.0009161436 -0.025207166 0.087799385 0.02969988 -0.14342834 -0.027652958 0.001575633 0.042769007
0.13720743 -0.10618847 -0.10545573 0.07105495 -0.043281138 -0.04860716 0.07447483 -0.04615724
-0.17392378 -0.20252834 -0.06745239 0.14201517 -0.0633015 0.052280694 -0.10408587 -0.11791971
0.07022222 -0.07456448 0.056066357 0.15407762 -0.13801685 0.10573808 0.112343945 0.0396186
0.043716643 -0.09398494 -0.08643029 -0.00082176656 -0.1267894 0.033322457 0.21844782 -0.04404421
-0.023447692 -0.15150538 0.023213519 0.10432032 -0.022636466 -0.027252447 -0.07232815 0.16355453
-0.06146068 0.13782121 0.035637274 0.035012 -0.03188101 -0.2503347 -0.009349437 -0.04998903
-0.019956643 0.1236346 0.17320722 -0.053497065 -0.0764288 -0.08879646 -0.08463133 0.072489865
-0.030575415 0.023532137 0.052497882 -0.0398798 0.027138628 -0.014907336 -0.015323168 -0.11573533
-0.015004138 0.09432944 -0.002903017 -0.08165138 -0.10024369 0.06302133 0.048640534 -0.012111914
-0.009862381 -0.06418794 0.114833884 0.2283414 0.045062725 0.025658105 0.078802615 -0.06635114
0.025443904 -0.19008951 0.11306581 0.0678421 -0.028460022 -0.0038030308 -0.042058773 -0.04426021
0.09259564 -0.18623829 0.17266661 0.010077468 0.11464867 -0.057273265 -0.07620683 -0.085217446
-0.0862739 0.05233436 -0.14258067 0.19476376 -0.2174808 0.045284253 0.0147306165 0.03874655
-0.031896356 0.14382347 0.086279206 -0.100102946 0.044119943 0.15180333 -0.09653896 0.006167791
0.017011773 -0.03442616 0.13776633 -0.033638805 -0.11887307 0.08508412 0.04671032 0.040584646
00000000: 43e3 383e 7332 943c 4c59 f13c 50df 083e
00000010: 41eb 37be 43a4 853d 69c6 77be 8077 2c3d
00000020: 1296 d9bc a27c 35bb 6113 263d af6f 953d
00000030: 9317 9d3d efc4 5c3d a2eb dcbc 4b5b 163e
00000040: 565c 703d aa54 5d3e 49a3 c43d b706 75bc
00000050: d76e 55bd 8360 283c 4f1f 83bd 6f86 0cbc
00000060: bcfc a1bd 09e2 cd3c cd2c ffbd ffcc 2d3e
00000070: 6f87 c73d 12cd a4bc ec55 493c 4d31 da3d
00000080: f969 ff3d f8d4 ecbc 129c d6bc 98f3 9d3d
00000090: 3762 2b3d 0478 e23c da4d 003d f044 ea3d
000000a0: 2e8d 7ebd b694 edbd 63a4 553d f538 dabc
000000b0: 8c17 e53b 7633 12bd 215a 14be 4757 afbd
000000c0: f8e0 793c 3be5 30bd 1051 ccbc 8f5d 803d
000000d0: 871a 2d3d 7be7 a33d 9dd5 0c3d f97c ffbd
000000e0: f947 ad3d 5626 753d 6dcf c4bb 091d f4bd
000000f0: 9c8d e2bd af9c 90bd 7384 8f3d e5d6 d53d
00000100: 365b 27be 1216 1b3e 44a7 a43d 27a1 2d3c
00000110: e678 febd 41d1 6dbe 534a 0b3e 77b2 e33d
00000120: 9a37 973d 17fd 84bd 30b4 743d 4e25 273d
00000130: 69ae 443e 1fb5 c8bd ab09 133e 1158 87bd
00000140: 25b8 393c 7391 f9bd a6b1 0f3e 1d32 cebd
00000150: b017 863d d9fd 0fbe e0ff 60bd 4ac9 98bc
00000160: 85ed 00bd 66b8 2a3d 8a7e 123c 693c 203e
00000170: ec17 9cba 9121 813d 6112 0bbd 8b20 a1bd
00000180: 30b3 b53d e64f 1dbe 8f60 ca3d 1836 4e3d
00000190: e976 a73a c34e 3abe 686e 0c3e 96b5 f33d
000001a0: 2380 94bd 88d2 dcbc 15b5 d33c 9647 d1bd
000001b0: 9ffc 17be e833 093d d687 edbd 5e71 923d
000001c0: 8478 2fbd 2e16 4a3d 8738 3e3e a6b0 333e
000001d0: 5525 0f3e 7f0d cfbc dc40 0fbc 774d 74bd
000001e0: aced 1ebe 3ed6 61be cc5b 8e3b 9a80 763c
000001f0: c1e8 8a3d a1fd 12bd a557 243b 4fd2 0d3d
00000200: 5b29 70ba 427f cebc 2ad0 b33d 2a4d f33c
00000210: e1de 12be 7588 e2bc 7885 ce3a 8e2e 2f3d
00000220: 1b80 0c3e 5779 d9bd 2cf9 d7bd 4285 913d
00000230: 9047 31bd 4d18 47bd 4286 983d 600f 3dbd
00000240: 1319 32be 9763 4fbe 7b24 8abd 6d6c 113e
00000250: 38a4 81bd 4824 563d f92a d5bd e47f f1bd
00000260: abd0 8f3d 43b5 98bd d6a5 653d 86c6 1d3e
00000270: 4a54 0dbe 358d d83d 9514 e63d 1d47 223d
00000280: 3910 333d 2d7b c0bd 5d02 b1bd d26b 57ba
00000290: 15d5 01be 217d 083d c9b0 5f3e b467 34bd
000002a0: 6015 c0bc 3a24 1bbe 472a be3c e4a5 d53d
000002b0: 1c70 b9bc 8640 dfbc c820 94bd d77a 273e
000002c0: 32be 7bbd 0121 0d3e 64f8 113d be68 0f3d
000002d0: a995 02bd df2b 80be 622e 19bc 4cc1 4cbd
000002e0: 1d7c a3bc 2334 fd3d 3c5d 313e bd1f 5bbd
000002f0: b486 9cbd ebda b5bd 3153 adbd 9175 943d
00000300: 4b79 fabc 78c6 c03c 0508 573d 0059 23bd
00000310: d451 de3c e63d 74bc 060e 7bbc a506 edbd
00000320: ebd3 75bc cb2f c13d 8b40 3ebb d738 a7bd
00000330: 904c cdbd 5411 813d 4c3b 473d 0d71 46bc
00000340: d395 21bc f774 83bd 072e eb3d 54d2 693e
00000350: b193 383d f230 d23c 4463 a13d 1be3 87bd
00000360: bc6f d03c d3a6 42be 0c8f e73d cdf0 8a3d
00000370: fe24 e9bc 453c 79bb d245 2cbd 324a 35bd
00000380: c8a2 bd3d 40b5 3ebe 84cf 303e f71b 253c
00000390: eccc ea3d 5f97 6abd 5412 9cbd 7c86 aebd
000003a0: 5fb0 b0bd 8e5c 563d ab00 12be 2770 473e
000003b0: 49b3 5ebe fb7b 393d af58 713c b4b4 1e3d
000003c0: c1a5 02bd 7646 133e 27b3 b03d c602 cdbd
000003d0: 1db7 343d 5572 1b3e 38b6 c5bd 2e1b ca3b
000003e0: 465c 8b3c 7202 0dbd 9e12 0d3e d8c8 09bd
000003f0: b973 f3bd 9540 ae3d 5253 3f3d 163c 263d

model.fc.0.bias f4 [512]
7.842067e-06 1.695121e-05 8.577823e-06 9.4302224e-05 -1.9893885e-05 1.8564844e-05 -1.2576751e-05 5.861399e-05
-3.7915013e-06 4.1709204e-06 9.369324e-07 6.722762e-06 5.1212683e-06 9.621439e-06 -3.4053515e-05 -6.8710997e-06
5.9156346e-06 3.7252855e-06 3.977496e-07 4.5408824e-06 5.4243606e-06 2.86507e-05 2.4439778e-05 1.675608e-05
-4.588816e-05 2.9376211e-05 5.246954e-06 -1.137758e-05 1.0549243e-05 6.807043e-06 4.786071e-05 -1.5941474e-05
2.7809292e-06 -7.3558687e-07 -2.3114293e-05 -1.066206e-05 -3.3336548e-06 8.098147e-06 4.276547e-05 -9.061342e-06
-4.5027587e-06 -5.1433967e-06 1.119276e-05 1.2330217e-05 -9.041695e-05 -5.330714e-05 1.4282019e-05 -4.8185143e-06
1.212421e-05 -2.4533908e-06 2.1812978e-06 4.9162327e-07 2.1813396e-07 -3.281976e-05 9.38254e-06 -4.2467636e-06
6.4998994e-06 1.5130228e-05 -2.01233e-06 1.8342197e-06 -2.485016e-05 -3.9724408e-05 5.560983e-06 -3.7520756e-05
-2.3123719e-05 1.0261093e-05 9.725061e-06 1.746506e-05 7.4152143e-07 2.8317334e-06 -6.671795e-06 5.7911807e-06
-1.938912e-05 1.4981499e-06 -6.4279325e-06 -2.3431201e-05 -7.2015346e-06 1.0290248e-05 7.679473e-06 -1.6162145e-05
8.689782e-06 5.6677578e-05 6.834128e-06 3.4939632e-05 9.5056475e-06 -1.4780982e-05 -7.163477e-05 -6.396417e-05
-3.1910602e-06 -1.8205368e-06 -1.6117783e-05 4.3976056e-06 -1.5940634e-06 -2.0992022e-05 -2.246075e-05 -1.545094e-05
-5.301679e-05 1.1195037e-05 -1.820311e-07 -2.7048638e-05 -3.5343573e-06 2.7309168e-06 -3.5252674e-06 -1.7368688e-05
1.557009e-05 -1.5884718e-05 2.407875e-05 -1.21021285e-05 5.0932676e-06 -6.6866516e-05 -1.050402e-05 -9.463669e-06
7.7013865e-06 -1.133694e-05 5.914325e-05 1.32648665e-05 -1.6136559e-05 -3.6493902e-06 -5.5482265e-05 -5.6376376e-07
5.6949734e-06 -1.356314e-06 3.9215242e-06 1.7975979e-05 1.8752387e-05 6.4683436e-06 -3.4296107e-05 -2.3130297e-06
1.3693085e-05 -2.0878554e-06 -4.1128624e-05 -1.2076362e-05 4.287028e-05 -2.4880732e-05 1.5335394e-05 -3.733579e-05
-3.9961553e-05 6.4593637e-06 9.935751e-06 4.3174747e-05 -1.9037058e-06 2.4507792e-05 2.0859296e-05 -7.2792995e-05
-2.0319756e-05 1.8114157e-05 5.820469e-06 -2.3701743e-06 3.123814e-05 5.827675e-05 -7.171358e-06 -1.4986077e-05
-9.982515e-06 -6.5659524e-06 -1.3734336e-06 -1.2076728e-05 6.665878e-06 3.3233118e-06 4.1282924e-06 2.6406215e-06
-2.9608566e-06 -8.882155e-06 -2.8058494e-05 7.4583e-05 -1.18932985e-05 -1.708878e-06 2.4994248e-05 5.320695e-05
-5.7684814e-05 -3.2685428e-05 3.0785428e-05 -5.6136804e-07 -6.3678344e-05 6.8381974e-06 2.786375e-05 -3.1625007e-06
3.164862e-05 -1.9436928e-05 -7.4598624e-06 -2.4692252e-05 2.3301498e-05 -1.9737206e-05 -1.719995e-05 9.798281e-06
-4.743394e-06 -2.7021879e-06 8.9254045e-06 5.634718e-05 3.195128e-05 -2.8645425e-06 6.4685984e-05 -5.4254593e-05
7.3880888e-06 -1.8411827e-05 1.9598228e-06 1.9036897e-05 3.964549e-05 1.844437e-05 4.425373e-06 2.0908432e-05
-1.1750571e-05 -7.3240335e-06 9.807113e-07 -3.0615207e-05 1.25370825e-05 -2.2019025e-05 5.24254e-05 1.9130466e-05
-1.6667196e-05 4.9806746e-05 6.261737e-06 1.0790899e-05 -1.1810872e-05 3.544547e-05 -2.5241165e-05 4.463249e-05
-1.4581263e-05 4.4269113e-06 -1.1116962e-05 -4.429315e-05 8.956801e-06 -7.240487e-05 -2.0728608e-05 -2.4308272e-05
4.5541205e-05 1.0065592e-05 4.7351188e-07 -8.0964555e-06 -5.3543616e-05 2.6594467e-05 -5.8309575e-07 -2.8981873e-05
-5.580736e-05 7.1991885e-06 -4.2413296e-05 -7.085103e-05 -3.037927e-07 -1.6386279e-05 9.708349e-06 -1.5846235e-06
-3.0573135e-06 1.2112163e-05 -6.69408e-06 1.4060615e-05 -1.70395e-05 4.348346e-05 -1.7872177e-05 5.979998e-05
-5.5155997e-06 1.1132085e-05 -2.3363997e-05 -4.5948564e-05 -1.9471956e-05 2.8694901e-06 2.0033701e-06 4.3407814e-05
00000000: 6c91 0337 7232 8e37 78e9 0f37 1fc4 c538
00000010: cbe1 a6b7 b3bb 9b37 bc00 53b7 4bd8 7538
00000020: 7f71 7eb6 eff3 8b36 8181 7b35 1694 e136
00000030: 5cd7 ab36 c46b 2137 afd4 0eb8 4c8e e6b6
00000040: ea7e c636 ebff 7936 4a8a d534 e25d 9836
00000050: e702 b636 e956 f037 0604 cd37 688f 8c37
00000060: 0978 40b8 ef6c f637 fe0e b036 56e2 3eb7
00000070: a7fc 3037 0e68 e436 0cbe 4838 0eba 85b7
00000080: 00a0 3a36 2575 45b5 91e5 c1b7 33e1 32b7
00000090: c1b7 5fb6 47dd 0737 135f 3338 2b06 18b7
000000a0: 6716 97b6 7195 acb6 8ac8 3b37 e1dd 4e37
000000b0: 3b9e bdb8 1b96 5fb8 ce9c 6f37 b9ae a1b6
000000c0: 1669 4b37 efa4 24b6 6962 1236 18f8 0335
000000d0: 3538 6a34 f3a7 09b8 b469 1d37 6c7f 8eb6
000000e0: b619 da36 d6d7 7d37 910b 07b6 4f2f f635
000000f0: 5075 d0b7 c29d 26b8 7b98 ba36 9b5f 1db8
00000100: cff9 c1b7 0f27 2c37 d228 2337 ee81 9237
00000110: f70c 4735 cf08 3e36 48de dfb6 dd51 c236
00000120: d1a5 a2b7 0a14 c935 85af d7b6 1f8e c4b7
00000130: b6a4 f1b6 47a4 2c37 16d7 0037 f193 87b7
00000140: 54ca 1137 16b9 6d38 b650 e536 258c 1238
00000150: 727a 1f37 d6fb 77b7 a03a 96b8 8124 86b8
00000160: ff25 56b6 2b59 f4b5 ad34 87b7 258f 9336
00000170: 9af3 d5b5 0618 b0b7 186a bcb7 a49c 81b7
00000180: 585e 5eb8 51d2 3b37 5474 43b4 82e6 e2b7
00000190: cc2f 6db6 cb44 3736 a293 6cb6 f9b2 91b7
000001a0: 849c 8237 2c40 85b7 b9fc c937 3f0a 4bb7
000001b0: d6e6 aa36 b03a 8cb8 6c3a 30b7 26c6 1eb7
000001c0: 3435 0137 c933 3eb7 9510 7838 2b8c 5e37
000001d0: ff5c 87b7 0ce8 74b6 a1b5 68b8 8d55 17b5
000001e0: 7317 bf36 980a b6b5 a395 8336 1fcb 9637
000001f0: 724e 9d37 a60a d936 2ad9 0fb8 8c39 1bb6
00000200: 5abb 6537 151d 0cb6 8681 2cb8 949b 4ab7
00000210: 9dcf 3338 f7b6 d0b7 82a4 8037 0099 1cb8
00000220: 649c 27b8 83bd d836 bab1 2637 8816 3538
00000230: d582 ffb5 1596 cd37 fffa ae37 71a8 98b8
00000240: 5874 aab7 dbf3 9737 734d c336 490f 1fb6
00000250: b305 0338 2f6e 7438 7fa1 f0b6 b66c 7bb7
00000260: 937a 27b7 1a51 dcb6 d256 b8b5 279d 4ab7
00000270: 75ab df36 1006 5f36 c385 8a36 8835 3136
00000280: 21b3 46b6 9104 15b7 285f ebb7 7169 9c38
00000290: 5489 47b7 9a5c e5b5 bdaa d137 872a 5f38
000002a0: 99f2 71b8 b617 09b8 9a1f 0138 ebb0 16b5
000002b0: 0d8b 85b8 ab73 e536 f3bc e937 593b 54b6
000002c0: 72be 0438 7c0c a3b7 bb4f fab6 3522 cfb7
000002d0: 9677 c337 5491 a5b7 9d48 90b7 4c63 2437
000002e0: 7229 9fb6 3c57 35b6 52be 1537 5356 6c38
000002f0: 6d03 0638 773c 40b6 06a8 8738 6d8f 63b8
00000300: 33e7 f736 1973 9ab7 8085 0336 6db1 9f37
00000310: 0549 2638 fcb8 9a37 aa7d 9436 8464 af37
00000320: 5124 45b7 f8c0 f5b6 fca0 8335 d468 00b8
00000330: 5c56 5237 7fb5 b8b7 58e3 5b38 5d7a a037
00000340: 88d0 8bb7 96e7 5038 e91b d236 8f0a 3537
00000350: 4f27 46b7 49ab 1438 fdbc d3b7 c533 3b38
00000360: 0ca2 74b7 e18a 9436 fd82 3ab7 68c7 39b8
00000370: 2b45 1637 12d8 97b8 59e2 adb7 9ee9 cbb7
00000380: 7f03 3f38 63df 2837 fa36 fe34 03d6 07b7
00000390: 0594 60b8 2f17 df37 0986 1cb5 191e f3b7
000003a0: b212 6ab8 8f90 f136 eee4 31b8 db95 94b8
000003b0: f318 a3b4 4475 89b7 0be1 2237 40af d4b5
000003c0: 3f2c 4db6 5835 4b37 b69d e0b6 e2e5 6b37
000003d0: 0cf0 8eb7 0262 3638 35ec 95b7 bdd1 7a38
000003e0: a412 b9b6 f1c3 3a37 cdfd c3b7 e5b8 40b8
000003f0: b557 a3b7 7791 4036 a371 0636 c910 3638

model.fc.1.weight f4 [512]
1.0761662 1.2680227 1.1627592 1.1757507 1.1330652 1.0699852 1.0902607 1.1152552
0.6243013 1.146601 0.9330713 1.0585452 1.1610507 1.0555875 1.1399099 1.1583
0.72127134 1.1374111 0.6764894 0.9972515 1.0595653 1.1198082 1.1516052 1.1367673
1.2691431 1.1852198 0.9362579 1.140017 1.1312778 0.8423719 1.2984383 0.94680023
0.982374 1.156888 1.0413579 1.2335533 1.0812469 1.0969135 1.2266799 1.1023262
1.1782113 1.1332958 1.0066633 1.2336031 1.2366987 1.238244 1.1799451 1.1511158
1.160056 1.0504832 1.1344616 1.1536701 1.0598578 1.0977651 1.1605794 1.0710897
1.0241745 1.2645439 1.1256614 1.0985774 0.88685614 1.1196797 1.0747813 1.1785939
1.1081834 1.0745624 1.2891606 1.121793 1.0709447 1.0332004 1.0611216 1.0913762
1.1116743 1.0544635 1.1046611 1.1243049 1.0005562 1.0291504 1.0009474 1.1162354
1.1465933 1.1602938 1.0756236 1.0526476 1.0298398 0.8465968 1.1287838 0.99410105
1.1478202 1.1058822 1.1511608 1.1298096 1.1217947 1.0201402 1.1423486 1.1932963
1.1516024 1.0471724 0.89789057 1.0765882 1.0256537 1.1281893 1.1177973 1.1177856
1.041354 1.0499775 1.1064452 1.1120083 1.1153713 1.2298263 1.1441312 1.1453425
1.1921334 1.0500546 1.2250763 1.1111116 1.1182861 1.0400558 1.1118016 0.9486807
1.1494536 1.1338234 1.1193222 1.1571938 1.1880144 1.0076789 1.0594888 1.0468616
1.156813 1.1920952 1.0115416 1.2448622 1.1406076 1.0408206 1.1748141 1.1663871
1.2009144 1.0422235 0.9344071 1.0809035 1.2030424 1.1385969 1.0367892 1.2099257
1.0114602 1.1350981 1.1348406 1.1027769 1.1272027 1.1105794 1.1116796 1.1567357
1.2569599 0.9848582 1.0557946 1.1032234 1.1340582 1.056006 1.079318 0.9717281
1.0444117 1.2511234 1.1340147 1.1912559 1.0936534 1.200351 0.78732663 1.3225429
1.1507072 1.0670391 1.1393833 1.1295438 1.0557809 1.1346802 1.2245106 0.99267375
1.1503868 1.1227742 1.0939916 1.2859261 1.0209396 0.9582506 1.0552212 1.1153609
1.0356625 1.0593716 1.0568137 1.2003566 1.0633633 1.0912313 1.2186788 1.2810321
1.1644903 1.1110432 1.1452277 1.0410979 1.3003955 1.0920393 1.0561495 1.1282786
1.0972614 1.0558453 1.0321739 1.1925412 1.0584261 1.1075369 1.0399609 1.045607
1.0889013 1.1257452 1.110817 1.0977831 1.1465535 1.1490769 1.1516199 1.13242
1.1760219 1.1165932 1.22002 1.190345 1.1777616 1.2969729 1.1413237 0.88237256
1.1724265 1.1810974 1.1965908 1.1593027 1.0737895 1.2544578 1.1060363 1.1828805
1.1338191 1.3052312 1.1431347 1.2113912 1.1092085 1.1261144 1.0965201 1.0449191
1.1755364 1.000655 0.9921672 1.1833254 1.2414901 1.1352234 1.1689227 1.1330234
1.1240377 1.2343869 1.1622212 0.8915102 1.0727527 0.9414078 0.8888756 1.1109815
00000000: d0bf 893f 914e a23f 4bd5 943f 007f 963f
00000010: 4808 913f 46f5 883f aa8d 8b3f afc0 8e3f
00000020: 36d2 1f3f d2c3 923f c3dd 6e3f 697e 873f
00000030: 4f9d 943f 7e1d 873f 91e8 913f 2d43 943f
00000040: 3da5 383f b096 913f 692e 2d3f e04b 7f3f
00000050: d69f 873f e055 8f3f cd67 933f 9781 913f
00000060: 4873 a23f 48b5 973f 99ae 6f3f 14ec 913f
00000070: b6cd 903f afa5 573f 3a33 a63f 8061 723f
00000080: dd7c 7b3f e814 943f 374b 853f 13e5 9d3f
00000090: 4c66 8a3f a967 8c3f d903 9d3f 0619 8d3f
000000a0: a1cf 963f d60f 913f 58da 803f b5e6 9d3f
000000b0: 254c 9e3f c87e 9e3f 7108 973f c357 933f
000000c0: b77c 943f 3c76 863f 0a36 913f 76ab 933f
000000d0: 6ca9 873f 9183 8c3f de8d 943f 7819 893f
000000e0: 2618 833f 93dc a13f ac15 903f 2f9e 8c3f
000000f0: 0109 633f aa51 8f3f 6f92 893f 2adc 963f
00000100: f4d8 8d3f 438b 893f 3703 a53f ea96 8f3f
00000110: b714 893f e93f 843f d5d2 873f 37b2 8b3f
00000120: 584b 8e3f a9f8 863f 8965 8d3f 39e9 8f3f
00000130: 3a12 803f 33bb 833f 0b1f 803f cde0 8e3f
00000140: 92c3 923f 8284 943f 09ae 893f 28bd 863f
00000150: cad1 833f 91ba 583f fd7b 903f 687d 7e3f
00000160: c6eb 923f 8c8d 8d3f 3d59 933f 9a9d 903f
00000170: f896 8f3f f493 823f 7b38 923f efbd 983f
00000180: b567 933f bf09 863f 28dc 653f a4cd 893f
00000190: 9f48 833f 8268 903f fb13 8f3f 9913 8f3f
000001a0: 164b 853f aa65 863f ff9f 8d3f 4a56 8e3f
000001b0: 7dc4 8e3f f36a 9d3f e472 923f 959a 923f
000001c0: d497 983f 3068 863f 4dcf 9c3f e838 8e3f
000001d0: 0024 8f3f 8c20 853f 844f 8e3f bddc 723f
000001e0: 4c21 933f 2021 913f f345 8f3f ed1e 943f
000001f0: db10 983f 9ffb 803f 549d 873f 90ff 853f
00000200: 7312 943f 9396 983f 327a 813f a557 9f3f
00000210: 6eff 913f 9c39 853f 4f60 963f 2c4c 953f
00000220: 90b7 993f 9467 853f 4e35 6f3f 0c5b 8a3f
00000230: 4bfd 993f 8bbd 913f 82b5 843f d8de 9a3f
00000240: 8777 813f e54a 913f 7542 913f cb27 8d3f
00000250: 2e48 903f 7727 8e3f 844b 8e3f ea0f 943f
00000260: 10e4 a03f ab1f 7c3f 4724 873f 6d36 8d3f
00000270: d228 913f 342b 873f 1827 8a3f 2cc3 783f
00000280: 48af 853f d024 a03f 6527 913f 137b 983f
00000290: d6fc 8b3f 1aa5 993f 3d8e 493f 1649 a93f
000002a0: 604a 933f bd94 883f 50d7 913f e494 903f
000002b0: d423 873f 333d 913f c3bc 9c3f de1f 7e3f
000002c0: e03f 933f 11b7 8f3f eb07 8c3f 3a99 a43f
000002d0: 26ae 823f e94f 753f 7d11 873f 25c4 8e3f
000002e0: 9790 843f 7d99 873f ac45 873f 49a5 993f
000002f0: 4a1c 883f 78ad 8b3f abfd 9b3f dcf8 a33f
00000300: 050e 953f aa36 8e3f d296 923f b242 853f
00000310: 5c73 a63f f2c7 8b3f e82f 873f 6f6b 903f
00000320: 1073 8c3f f025 873f 461e 843f 31a5 983f
00000330: 827a 873f c5c3 8d3f 701d 853f 73d6 853f
00000340: 1e61 8b3f 6b18 903f 402f 8e3f 2884 8c3f
00000350: 44c2 923f f414 933f 4868 933f 23f3 903f
00000360: e387 963f 87ec 8e3f 9e29 9c3f 3a5d 983f
00000370: e4c0 963f 3503 a63f e516 923f 2be3 613f
00000380: 1212 963f 332e 973f e329 993f 0864 943f
00000390: ef71 893f 1392 a03f 9992 8d3f a168 973f
000003a0: fc20 913f d111 a73f 3d52 923f de0e 9b3f
000003b0: 8bfa 8d3f 8424 903f c55a 8c3f e9bf 853f
000003c0: fa77 963f 7715 803f abfe 7d3f 3577 973f
000003d0: 26e9 9e3f 004f 913f 429f 953f e906 913f
000003e0: 78e0 8f3f 6400 9e3f aac3 943f 033a 643f
000003f0: f64f 893f 1a00 713f 5a8d 633f a434 8e3f

model.fc.1.bias f4 [512]
-0.11084225 -0.12457719 0.020740246 -0.07578064 -0.014694478 0.035279453 -0.0059180455 -0.16132046
0.022883821 -0.011178305 -0.015542321 -0.13503623 -0.0786778 -0.036427353 -0.08397701 0.022277625
-0.009374346 -0.09971444 -0.060602564 -0.008575946 0.0523055 0.046099152 -0.06777483 0.09413768
0.02239368 -0.052803338 -0.1773437 0.014131816 0.09997601 0.005883509 -0.24973401 -0.055486176
-0.07557424 0.08655915 0.08955612 0.018534634 0.033208795 0.013532217 -0.15527335 0.033043023
0.0033070173 0.046655342 0.020242076 -0.023359718 -0.028892145 -0.07792308 -0.08178372 -0.033350058
-0.0387788 0.009312833 -0.042519476 -0.08196616 0.052224945 0.031446844 -0.117999524 0.04110061
0.030597925 -0.052084744 0.0268566 -0.042666126 -0.112714685 -0.0738498 -0.06605872 -0.13460091
0.033831038 -0.080033936 -0.03112802 0.039143328 -0.029613163 -0.069117434 0.00047109905 0.087352864
0.009159616 -0.17849211 0.029721953 -0.20235 0.010978511 -0.08132403 -0.07652005 0.016960701
-0.00046917005 0.030197226 0.07381528 -0.09725137 -0.012066487 -0.095316045 -0.036233783 -0.15237641
-0.00336447 -0.06766061 -0.08199478 -0.08922982 0.022065103 0.0002100017 -0.08829854 -0.09624507
-0.038242865 -0.028842965 -0.084465005 -0.007569676 -0.061207935 -0.027448617 0.011000466 -0.04835364
0.079317905 0.083584316 0.08407158 0.012582425 0.0018021096 -0.12822619 0.0618469 0.04028372
-0.043906357 -0.035402667 -0.03538388 0.0299564 0.015450418 0.053330734 -0.046642866 -0.066693164
0.007293625 -0.06949602 0.022429446 0.022724671 -0.11334528 -0.014374565 -0.12083426 0.05243646
-0.17489307 0.09228241 -0.020665672 -0.16699603 -0.06353442 0.021630585 0.002842677 0.013441878
-0.08502771 0.042494845 -0.1054039 -0.053990986 -0.0022594484 -0.17843011 0.026569046 -0.07676911
-0.13417386 -0.03744727 -0.07296033 -0.038132414 0.008567619 -0.035890955 -0.09729187 -0.02237493
-0.18768637 0.03751226 -0.014358318 -0.07163983 -0.02839959 0.07069325 -0.057150997 -0.13039085
-0.094491825 -0.047520448 0.008691034 -0.10502581 -0.052452363 -0.019459395 -0.2058686 0.0063953297
0.0749083 -0.0067335893 -0.10799987 -0.011795248 0.029916065 -0.06907021 -0.034623366 -0.031531867
-0.09144602 0.0011579287 0.04846767 -0.02240101 -0.01820105 -0.16907538 0.14280544 -0.041422416
-0.086852476 -0.006102494 -0.03225712 -0.038304348 0.013777935 -0.022355227 -0.14207359 -0.0836316
-0.13195384 -0.05650111 -0.030472383 -0.15040778 -0.0360551 0.014325066 -0.027191164 0.0055334424
-0.07491422 -0.071381494 -0.06759781 -0.05626761 0.008610437 -0.012342029 0.06363632 -0.031550214
0.061738312 -0.100997515 -0.06167956 -0.025284456 0.056227665 -0.16901268 -0.024013827 -0.03980325
-0.13115713 -0.010528414 -0.1256878 -0.0065386277 0.03519379 -0.11896316 -0.020109786 -0.08963322
-0.043430697 0.0075081303 -0.14735326 -0.042234134 -0.006725884 -0.16719341 0.002176472 -0.12852491
0.008842266 -0.18679841 -0.0058398983 -0.06652938 -0.11426014 0.047816817 0.02170107 -0.040819187
-0.15242718 -0.04789149 0.040576875 -0.054597538 -0.06507902 -0.08203553 -0.027617948 -0.1640541
0.032944817 -0.11292505 0.07197817 0.039976005 0.059645433 -0.09255049 -0.013493013 0.054480955
00000000: 4301 e3bd 5322 ffbd 73e7 a93c e132 9bbd
00000010: 1cc1 70bc 3081 103d 2aec c1bb 3131 25be
00000020: da76 bb3c 3625 37bc 38a5 7ebc f046 0abe
00000030: d421 a1bd d934 15bd 23fc abbd 917f b63c
00000040: db96 19bc 1637 ccbd 653a 78bd 2082 0cbc
00000050: 4b3e 563d 77d2 3c3d 88cd 8abd 42cb c03d
00000060: f372 b73c 5048 58bd 9699 35be 2289 673c
00000070: 39c0 cc3d 73ca c03b 46ba 7fbe 7945 63bd
00000080: abc6 9abd ec45 b13d 3369 b73d f2d5 973c
00000090: f205 083d 3bb6 5d3c faff 1ebe 1f58 073d
000000a0: 8bba 583b ac19 3f3d b6d2 a53c e15c bfbc
000000b0: 38af ecbc 2396 9fbd 397e a7bd 129a 08bd
000000c0: 85d6 1ebd da94 183c e728 2ebd e0dd a7bd
000000d0: d3e9 553d 68ce 003d bca9 f1bd 1d59 283d
000000e0: 80a8 fa3c d056 55bd 5f02 dc3c adc2 2ebd
000000f0: f5d6 e6bd 903e 97bd cb49 87bd d2d4 09be
00000100: 6a92 0a3d d5e8 a3bd 3000 ffbc c154 203d
00000110: 4e97 f2bc 718d 8dbd d8fd f639 0fe6 b23d
00000120: 3712 163c a3c6 36be 747b f33c d734 4fbe
00000130: 36df 333c 378d a6bd 8bb6 9cbd 2bf1 8a3c
00000140: f0fa f5b9 2c60 f73c 772c 973d ba2b c7bd
00000150: 84b2 45bc 0f35 c3bd e069 14bd 9008 1cbe
00000160: 717e 5cbb a591 8abd e1ec a7bd 20be b6bd
00000170: e0c1 b43c e733 5c39 ddd5 b4bd 231c c5bd
00000180: 8da4 1cbd 1548 ecbc fdfb acbd 0b0b f8bb
00000190: 2cb5 7abd ecdb e0bc 4c3b 343c 770e 46bd
000001a0: 6d71 a23d 412e ab3d b82d ac3d 8426 4e3c
000001b0: c434 ec3a ba4d 03be 2d53 7d3d 8b00 253d
000001c0: 27d7 33bd 6302 11bd b0ee 10bd 2067 f53c
000001d0: c023 7d3c 5471 5a3d 970c 3fbd 6d96 88bd
000001e0: 5cff ee3b ee53 8ebd f5bd b73c 1729 ba3c
000001f0: 9221 e8bd 4c83 6bbc f477 f7bd 9dc7 563d
00000200: 2b17 33be 8ffe bc3d 0e4b a9bc 0201 2bbe
00000210: 561e 82bd a032 b13c 354c 3a3b 533b 5c3c
00000220: 0223 aebd 130f 2e3d 00de d7bd a725 5dbd
00000230: 4113 14bb 62b6 36be 54a7 d93c 2039 9dbd
00000240: df64 09be 4f62 19bd 3a6c 95bd bc30 1cbd
00000250: 335f 0c3c 6502 13bd f640 c7bd a14b b7bc
00000260: db30 40be 75a6 193d 273f 6bbc e7b7 92bd
00000270: 42a6 e8bc 9fc7 903d 2a17 6abd 2e85 05be
00000280: ee84 c1bd cda4 42bd d764 0e3c c617 d7bd
00000290: 4ad8 56bd 4f69 9fbc 38cf 52be ea8f d13b
000002a0: 8669 993d 71a5 dcbb 092f ddbd db40 41bc
000002b0: 8912 f53c af74 8dbd 3bd1 0dbd 8f27 01bd
000002c0: 0d48 bbbd a4c5 973a 0986 463d 5382 b7bc
000002d0: 5e1a 95bc 1922 2dbe 973b 123e 8daa 29bd
000002e0: b6df b1bd 6ef7 c7bb 0b20 04bd 05e5 1cbd
000002f0: d9bc 613c 4f22 b7bc bd7b 11be 0b47 abbd
00000300: e81e 07be b56d 67bd 38a1 f9bc 7f04 1abe
00000310: 83ae 13bd aeb3 6a3c 01c0 debc e151 b53b
00000320: a06c 99bd 7630 92bd b870 8abd de78 66bd
00000330: ca12 0d3c 3936 4abc c253 823d cc3a 01bd
00000340: 50e1 7c3d c9d7 cebd b5a3 7cbd 5921 cfbc
00000350: fb4e 663d a911 2dbe a5b8 c4bc bc08 23bd
00000360: 0e4e 06be 5e7f 2cbc 4db4 00be fc41 d6bb
00000370: 5d27 103d f5a2 f3bd 47bd a4bc 9f91 b7bd
00000380: 63e4 31bd c306 f63b c6e3 16be b3fd 2cbd
00000390: ce64 dcbb c034 2bbe 24a3 0e3b 099c 03be
000003a0: 27df 103c 1548 3fbe 9e5c bfbb 8e40 88bd
000003b0: 3801 eabd 91db 433d 71c6 b13c 0532 27bd
000003c0: df15 1cbe de29 44bd f033 263d aba1 5fbd
000003d0: 2648 85bd 3e02 a8bd 093f e2bc ccfd 27be
000003e0: 25f1 063d 4045 e7bd 4a69 933d e1bd 233d
000003f0: c54e 743d 1c8b bdbd cc11 5dbc 6c27 5f3d

model.fc.1.running_mean f4 [512]
0.052718513 -0.028107023 -0.040421773 0.0041131536 -0.13200803 0.013561083 -0.053719696 0.02169097
0.014375575 -0.04808566 -0.048657715 -0.0085567795 0.0024724172 -0.022189425 -0.03872617 0.008661409
0.038691975 -0.0084232325 -0.0070855552 0.074950576 0.02543541 0.09646832 -0.097929314 0.04217707
0.015617588 0.0026654338 -0.016705139 0.01589586 0.060258087 0.058317825 0.020300547 -0.0169774
0.0858973 -0.060129955 -4.1059142e-05 0.042889785 0.021442955 -0.0522578 -0.03404042 0.0130166365
0.048391443 0.017919011 0.024386298 0.058120053 -0.055613354 0.03659673 -0.07279599 -0.062045775
-0.06932229 -0.12708262 0.033929676 -0.008923452 0.05797263 -0.07701272 -0.07914482 0.16852799
0.0419509 -0.05074739 0.0535713 -0.0035996279 0.0878718 -0.009023521 0.04782488 0.03775207
0.033146556 0.0637119 0.03683652 -0.007927435 -0.07046163 -0.063666135 0.022709036 0.02365343
0.04893488 0.04067808 0.015345087 -0.028355183 0.049094528 -0.017541932 0.05093894 -0.040407583
-0.029809576 0.11397805 0.0044229585 0.019176515 0.017451117 0.0008992307 0.026466135 0.052530017
-0.03983768 0.029121289 0.06888258 -0.07083218 0.027518509 -0.046548028 -0.03129704 0.04072647
0.04645608 -0.012936714 0.030020894 -0.0550212 0.0584782 -0.030154485 -0.028404187 0.08625115
0.07748876 -0.073946595 0.04545205 0.046264 0.035478704 0.019959165 0.002434265 -0.012521686
-0.019904604 -0.10900326 0.059056394 -0.04126927 0.035739865 -0.014552809 0.09122432 0.033586603
0.11014328 -0.02272444 -0.038784537 -0.09741272 -0.037259527 -0.050490648 -6.945235e-05 0.01409804
0.06290987 0.022631047 -0.050143592 -0.03755071 -0.09342532 -0.035778534 -0.012762175 -0.014679648
0.067839324 0.027764851 -0.00996256 -0.087014996 0.0042728665 0.03855457 0.010121959 0.040649783
0.040000156 0.012197604 -0.008277347 0.117655165 0.054791886 -0.019593459 -0.06151537 -0.015495765
0.0042026434 0.048162553 -0.0040740804 0.047971755 0.0030231026 -0.030659433 -0.01706359 -0.02101527
0.118278965 -0.049936812 -0.045367587 0.042034738 -0.008688528 -0.029930333 -0.052589096 0.0011486143
-0.015326489 -0.09265488 -0.009096227 0.04439077 -0.0602242 -0.05318375 0.029117739 -0.06151356
0.036817927 -0.023527803 0.036377966 0.027751891 -0.022879537 -0.0766192 0.0186075 -0.074390344
-0.049739867 0.07221473 0.13586983 -0.1376726 0.033333085 0.00938135 0.050265063 -0.059452053
-0.04076611 -0.027612139 0.011338556 -0.08736084 0.063942075 0.038967848 -0.0116105145 -0.04166572
-0.028364003 0.097818956 -0.022719162 -0.082530595 -0.004267195 -0.029997451 0.011504319 -0.08417219
-0.045845114 -0.036684684 0.042772535 0.08587761 0.07959848 -0.009200142 0.012548227 0.06747104
0.002227762 -0.007026291 0.012743163 0.09720546 -0.005029742 0.05966272 0.05193676 0.059595518
0.074223645 -0.076989576 0.0017380628 -0.08086254 0.023820255 -0.0139360055 0.002830978 -0.083612256
0.16180241 -0.01195193 0.0054595247 0.115930974 -0.13732703 0.0016659708 -0.036415182 0.03708428
-0.006123139 0.06682616 -0.055718362 -0.0005923605 0.033287164 -0.10038505 -0.037137195 0.019568373
-0.0063241385 -0.13198778 -0.053042915 0.03065461 0.06669113 0.016681384 0.059053365 -0.02855698
00000000: 5eef 573d b340 e6bc 4d91 25bd a2c7 863b
00000010: 1d2d 07be 4e2f 5e3c 2f09 5cbd 43b1 b13c
00000020: 8887 6b3c 78f5 44bd 504d 47bd bc31 0cbc
00000030: 4708 223b 99c6 b5bc 559f 1ebd 95e8 0d3c
00000040: 7a7b 1e3d 9901 0abc f22d e8bb b07f 993d
00000050: ec5d d03c 2f91 c53d 2a8f c8bd ddc1 2c3d
00000060: e9e0 7f3c 8fae 2e3b 37d9 88bc 0938 823c
00000070: 2fd1 763d acde 6e3d 554d a63c 3014 8bbc
00000080: ecea af3d d44a 76bd eb36 2cb8 33ad 2f3d
00000090: 23a9 af3c 460c 56bd f86d 0bbd bb43 553c
000000a0: 1b36 463d e4ca 923c c6c5 c73c 4b0f 6e3d
000000b0: d4ca 63bd 74e6 153d 1016 95bd b623 7ebd
000000c0: d8f8 8dbd f221 02be d8f9 0a3d ac33 12bc
000000d0: b574 6d3d d8b8 9dbd ae16 a2bd 9a92 2c3e
000000e0: b5d4 2b3d 7fdc 4fbd 946d 5b3d bce7 6bbb
000000f0: 21f6 b33d 64d7 13bc 05e4 433d eaa1 1a3d
00000100: afc4 073d 627b 823d e4e1 163d 13e2 01bc
00000110: 304e 90bd 6463 82bd 4d08 ba3c d7c4 c13c
00000120: f16f 483d 0f9e 263d f669 7b3c 2149 e8bc
00000130: 5817 493d 19b4 8fbc 5aa5 503d 6c82 25bd
00000140: 3633 f4bc 536d e93d 77ee 903b 1118 9d3c
00000150: a5f5 8e3c 5aba 6b3a 82cf d83c b729 573d
00000160: d62c 23bd c58f ee3c 4f12 8d3d 7610 91bd
00000170: 7f6e e13c 25a9 3ebd 5331 00bd cdd0 263d
00000180: bb48 3e3d 83f4 53bc 61ee f53c e95d 61bd
00000190: d686 6f3d 8a06 f7bc e6af e8bc 71a4 b03d
000001a0: 6db2 9e3d 5071 97bd ee2b 3a3d 527f 3d3d
000001b0: 1e52 113d 6781 a33c 3188 1f3b c227 4dbc
000001c0: fb0e a3bc 1a3d dfbd 1ee5 713d f709 29bd
000001d0: f763 123d e86e 6ebc d1d3 ba3d 1b92 093d
000001e0: cd92 e13d 9b28 babc 89dc 1ebd 5280 c7bd
000001f0: 729d 18bd 48cf 4ebd f2a6 91b8 77fb 663c
00000200: e4d6 803d bf64 b93c 5e63 4dbd c6ce 19bd
00000210: c655 bfbd 838c 12bd 7118 51bc e882 70bc
00000220: 58ef 8a3d 1d73 e33c 013a 23bc eb34 b2bd
00000230: 6703 8c3b 66eb 1d3d 93d6 253c 6380 263d
00000240: 34d7 233d 76d8 473c b69d 07bc 31f5 f03d
00000250: 756d 603d 7682 a0bc 8af7 7bbd f3e1 7dbc
00000260: 54b6 893b 1946 453d dd7f 85bb 087e 443d
00000270: 3f1f 463b 7e29 fbbc f1c8 8bbc 3728 acbc
00000280: 3e3c f23d 8b8a 4cbd 5dd3 39bd 9e2c 2c3d
00000290: 545a 0ebc 7530 f5bc aa67 57bd 1a8d 963a
000002a0: f41b 7bbc d7c1 bdbd 5708 15bc 19d3 353d
000002b0: a7ad 76bd 34d7 59bd 5388 ee3c a5f5 7bbd
000002c0: 65ce 163d 61bd c0bc 1001 153d ef57 e33c
000002d0: de6d bbbc 87ea 9cbd c16e 983c f759 98bd
000002e0: 08bc 4bbd 51e5 933d 7621 0b3e 0cfa 0cbe
000002f0: 4688 083d 3cb4 193c bde2 4d3d ff83 73bd
00000300: 5dfa 26bd da32 e2bc 5ac5 393c 3dea b2bd
00000310: 10f4 823d c09c 1f3d 073a 3ebc ada9 2abd
00000320: a05b e8bc 4e55 c83d 891d babc cd05 a9bd
00000330: d3d3 8bbb 37bd f5bc 9c7c 3c3c 7862 acbd
00000340: 16c8 3bbd ae42 16bd 4132 2f3d 9ae0 af3d
00000350: 8704 a33d 31bc 16bc 1497 4d3c 422e 8a3d
00000360: a5ff 113b cd3c e6bb b3c8 503c a813 c73d
00000370: 89d0 a4bb e560 743d a4bb 543d 6e1a 743d
00000380: 9102 983d b6ac 9dbd b6cf e33a 429b a5bd
00000390: b222 c33c d853 64bc ee87 393b e73c abbd
000003a0: 88af 253e 07d2 43bc d0e5 b23b 386d ed3d
000003b0: 759f 0cbe b45c da3a 1628 15bd b0e5 173d
000003c0: 9da4 c8bb 27dc 883d f038 64bd a448 1bba
000003d0: 1f58 083d ad96 cdbd 2c1d 18bd da4d a03c
000003e0: b83a cfbb ce27 07be 8743 59bd 601f fb3c
000003f0: 5c95 883d 66a7 883c f1e1 713d 54f0 e9bc

model.fc.1.running_var f4 [512]
0.027298087 0.033860087 0.03650932 0.037432734 0.03923647 0.045226578 0.048214305 0.036954664
0.028033076 0.054595713 0.04561849 0.04376917 0.030837147 0.03165966 0.034626465 0.043583885
0.030950509 0.032816697 0.023432577 0.038466837 0.040425178 0.045872662 0.037539937 0.049131088
0.0438744 0.030778931 0.03804159 0.03469118 0.037939616 0.033760417 0.04162036 0.043702316
0.041191127 0.04610133 0.045127884 0.044040993 0.043282945 0.042083897 0.03493024 0.040543873
0.040942967 0.05315151 0.040997464 0.031075425 0.042326964 0.035400193 0.038941674 0.032223836
0.033405453 0.04331697 0.044460203 0.04089756 0.037992127 0.04264762 0.029963965 0.033238143
0.045368318 0.034376327 0.04110785 0.033165626 0.026430655 0.036742207 0.03310807 0.032924622
0.037845045 0.036057465 0.033159383 0.04546257 0.037796192 0.041456 0.04659112 0.047383636
0.037487533 0.038146567 0.039832987 0.03238313 0.04746419 0.043765176 0.03520708 0.0394327
0.03924236 0.0445183 0.041536093 0.04118804 0.029981341 0.033913016 0.047359046 0.03082447
0.031163173 0.052174445 0.03060776 0.03811125 0.04557562 0.04674815 0.03459619 0.034546025
0.046758562 0.04266894 0.04113175 0.04675487 0.040744476 0.042383887 0.036130246 0.035900734
0.043847624 0.039040312 0.043383844 0.041919872 0.030650867 0.032840904 0.044065148 0.040631235
0.033054374 0.03271876 0.04320903 0.041243568 0.03750535 0.044551466 0.03145493 0.0342747
0.034170404 0.032312114 0.049578283 0.03813115 0.0361433 0.043139346 0.043949395 0.05170216
0.035345506 0.03827624 0.03505529 0.0331193 0.036545753 0.034385912 0.04550235 0.05150451
0.02675132 0.043860126 0.030859647 0.04164432 0.037164748 0.034946725 0.04174834 0.029855026
0.04019336 0.042801335 0.033740282 0.04712596 0.0326155 0.033286415 0.04065777 0.047829483
0.031263802 0.044324987 0.039551675 0.034486704 0.0434554 0.043264005 0.042475905 0.03954937
0.03420362 0.035425622 0.049848013 0.028492114 0.04685608 0.04640458 0.04005022 0.0327258
0.053260088 0.032092154 0.042008527 0.037438713 0.043213293 0.034570422 0.030010143 0.037539855
0.03882624 0.030214626 0.03756058 0.050868522 0.036507916 0.033660777 0.04326592 0.03733249
0.033850417 0.03896761 0.030016819 0.03470371 0.035408035 0.049291745 0.027678294 0.04449474
0.026036097 0.04171808 0.04250432 0.03675929 0.040094405 0.050074846 0.031476937 0.042546585
0.039284334 0.031185132 0.039030723 0.03329959 0.03942658 0.03236579 0.031914458 0.031507183
0.050746348 0.03794055 0.034746446 0.04100826 0.042178337 0.035796892 0.034471244 0.041074846
0.037384324 0.04765694 0.037504252 0.033617526 0.03736872 0.034104265 0.031433344 0.03896084
0.029659044 0.043358468 0.04055178 0.039560303 0.034621604 0.03277574 0.047439095 0.03127399
0.040574532 0.032426402 0.03949272 0.031342484 0.037280884 0.040377937 0.039812487 0.039454147
0.03484658 0.038440708 0.042180978 0.029234452 0.030110287 0.04356031 0.028636592 0.036430944
0.039127704 0.03004572 0.03272052 0.035744168 0.04204111 0.039631765 0.04083704 0.046721272
00000000: 3da0 df3c e0b0 0a3d cc8a 153d 1153 193d
00000010: 6cb6 203d 813f 393d 5d7c 453d c65d 173d
00000020: 9fa5 e53c c19f 5f3d 74da 3a3d 4d47 333d
00000030: 2f9e fc3c 8fad 013d 7bd4 0d3d 0485 323d
00000040: ec8b fd3c cd6a 063d adf5 bf3c 678f 1d3d
00000050: df94 253d f9e4 3b3d 7ac3 193d ae3d 493d
00000060: a5b5 333d 1924 fc3c 80d1 1b3d 5718 0e3d
00000070: 9266 1b3d 5d48 0a3d 1c7a 2a3d 3301 333d
00000080: 07b8 283d c0d4 3c3d 04d8 383d 5464 343d
00000090: 7549 313d 2a60 2c3d 0313 0f3d 5511 263d
000000a0: d0b3 273d 66b5 593d f5ec 273d e491 fe3c
000000b0: 0a5f 2d3d cbff 103d 4e81 1f3d 24fd 033d
000000c0: 28d4 083d 236d 313d e71b 363d 3384 273d
000000d0: a29d 1b3d 45af 2e3d fd76 f53c b824 083d
000000e0: 21d4 393d 31ce 0c3d b460 283d aed8 073d
000000f0: 1a85 d83c ff7e 163d 549c 073d f8db 063d
00000100: 6803 1b3d feb0 133d 22d2 073d f636 3a3d
00000110: 2ed0 1a3d c4cd 293d 55d6 3e3d 5815 423d
00000120: 878c 193d 933f 1c3d ea27 233d 2ca4 043d
00000130: cf69 423d 1d43 333d 4d35 103d 2f84 213d
00000140: 99bc 203d d258 363d c021 2a3d cab4 283d
00000150: 6e9b f53c 60e8 0a3d 8ffb 413d 9983 fc3c
00000160: e949 ff3c dfb4 553d 20bd fa3c 8b1a 1c3d
00000170: 80ad 3a3d fd7a 3f3d bcb4 0d3d 2280 0d3d
00000180: e885 3f3d a0c5 2e3d c479 283d 0982 3f3d
00000190: aee3 263d ba9a 2d3d 4ffd 133d a60c 133d
000001a0: 9199 333d bce8 1f3d 42b3 313d 2cb4 2b3d
000001b0: 8717 fb3c 2f84 063d a87d 343d f06c 263d
000001c0: 0664 073d 1b04 063d f4fb 303d 04ef 283d
000001d0: 369f 193d 997b 363d e2d6 003d a163 0c3d
000001e0: 44f6 0b3d b559 043d 9912 4b3d 692f 1c3d
000001f0: ff0a 143d e2b2 303d 4804 343d a5c5 533d
00000200: 73c6 103d 8cc7 1c3d 2396 0f3d 1aa8 073d
00000210: 00b1 153d 3ed8 0c3d ac60 3a3d 65f6 523d
00000220: 9625 db3c ada6 333d 5fcd fc3c 3c93 2a3d
00000230: 103a 183d 4c24 0f3d 4f00 2b3d 8792 f43c
00000240: cba1 243d 7450 2f3d 4033 0a3d 2707 413d
00000250: d597 053d 5657 083d c388 263d d9e8 433d
00000260: 790e 003d 1e8e 353d f000 223d ee41 0d3d
00000270: 4afe 313d 9935 313d 37fb 2d3d 85fe 213d
00000280: 1819 0c3d 751a 113d 6e2d 4c3d 4b68 e93c
00000290: 29ec 3f3d bb12 3e3d b30b 243d 7d0b 063d
000002a0: 4027 5a3d 1073 033d 2211 2c3d 5659 193d
000002b0: 6c00 313d b799 0d3d d5d7 f53c 64c3 193d
000002c0: 4308 1f3d aa84 f73c 1fd9 193d 835b 503d
000002d0: 5389 153d e2df 093d 9b37 313d f4e9 183d
000002e0: bca6 0a3d 809c 1f3d d5e5 f53c 7a25 0e3d
000002f0: 0408 113d 24e6 493d 97bd e23c 1e40 363d
00000300: a749 d53c 94e0 2a3d 0319 2e3d e990 163d
00000310: 083a 243d 481b 4d3d f6ed 003d 5445 2e3d
00000320: 9ce8 203d f677 ff3c aede 1f3d 2765 083d
00000330: c47d 213d fe91 043d bcb8 023d ad0d 013d
00000340: 67db 4f3d 8d67 1b3d 4a52 0e3d 47f8 273d
00000350: 31c3 2c3d c39f 123d b831 0d3d 193e 283d
00000360: 4e20 193d ec33 433d 0f9e 193d 88b2 093d
00000370: f10f 193d eab0 0b3d 40c0 003d 6795 1f3d
00000380: 86f7 f23c a698 313d a019 263d fc09 223d
00000390: 62cf 0d3d db3f 063d 7f4f 423d 2819 003d
000003a0: 7b31 263d 8cd1 043d 1ec3 213d fa60 003d
000003b0: d7b3 183d 5663 253d 6b12 233d ac9a 213d
000003c0: 4abb 0e3d 0174 1d3d f6c5 2c3d 177d ef3c
000003d0: d9a9 f63c 4c6c 323d 4997 ea3c 9d38 153d
000003e0: 5f44 203d 7122 f63c f405 063d 7a68 123d
000003f0: 4d33 2c3d eb54 223d bd44 273d ce5e 3f3d

model.fc.3.weight f4 [1, 512]
-0.18075344 -0.29117846 0.20894605 -0.24075422 0.18829484 0.15822966 0.16350116 -0.19058149
0.048957273 0.21150324 0.12840736 -0.16372336 -0.2381807 -0.15086561 -0.21383035 0.21067166
0.05794631 -0.20274988 0.049276616 0.11951787 0.14640658 0.19836217 -0.20297019 0.21321638
0.28082916 -0.22203735 0.11948237 0.19431497 0.20306872 0.07680517 -0.3065322 0.119052105
-0.114637464 0.2075167 0.13878591 0.24442902 0.15819746 0.17115596 -0.24778444 0.17333695
0.21419647 0.18846914 0.12980609 -0.22616194 -0.24952236 -0.24839757 -0.22893062 -0.20041373
-0.20155786 0.14374895 0.18926422 -0.20099986 0.16218685 0.16814217 -0.24264073 0.15616633
0.13022067 -0.2502134 0.20254429 -0.1821205 -0.09859781 -0.18083711 -0.17330618 -0.23588361
0.18304643 -0.15069647 -0.2703411 0.18828365 0.17207767 0.13241746 0.14831904 0.1668789
-0.19249275 -0.18436745 0.17684044 -0.20557883 0.13673612 0.15216637 -0.1298285 0.18218747
0.1933285 0.19562955 0.15809458 -0.17834616 -0.1364269 -0.09206026 0.2058922 -0.14290032
-0.20363745 0.1921449 -0.21914415 0.18927464 0.17913118 0.12880848 -0.20551185 -0.22529905
0.1956806 0.13925494 0.08363486 0.16870792 0.12437911 0.1985052 0.18661012 -0.17120662
0.1468251 0.14437564 0.1812816 0.18912052 -0.17382137 -0.25678223 0.1898561 0.21700996
-0.2598254 -0.1596657 0.23635192 0.1780694 0.17780235 0.14781669 -0.17930472 -0.11685782
-0.2030653 -0.20817257 0.16364245 -0.20159063 -0.2203487 0.13468538 0.16552263 0.13809113
-0.21703765 0.20216185 0.12085174 -0.27424273 -0.2133737 0.14033157 0.2163948 0.19531126
-0.24284297 0.1485912 -0.1537686 0.16223454 -0.2213288 -0.21533348 0.12797071 -0.2300196
-0.16461277 0.2114087 -0.22368407 0.18907179 0.20472132 -0.17953102 -0.19590259 0.19182654
-0.26788935 0.11977521 0.15099777 -0.19035205 0.1793333 0.14069173 0.17215087 -0.13593432
-0.18628325 -0.25195655 0.19889504 -0.22181031 0.18102603 0.24414025 -0.10228027 -0.33611372
0.20187311 -0.16736536 -0.19213593 0.18704183 0.15847991 0.19950002 -0.25057703 0.1262226
-0.21552858 -0.20095089 0.17747311 0.26933324 0.13874425 -0.14371134 0.14693637 -0.19343044
-0.15720706 0.15063079 -0.15854266 -0.24915628 0.16431704 0.16506961 -0.2793555 -0.26908404
-0.22657816 -0.19266891 0.19864166 -0.16004162 -0.30586398 0.16359177 -0.15532576 0.19632648
0.18395181 -0.13949436 0.15543163 -0.21763878 0.15456793 -0.18049346 0.14804614 -0.14882219
0.17409267 -0.21323021 -0.17457886 -0.17909877 0.20020618 -0.2233348 -0.23448148 -0.20359947
-0.22005893 0.18118644 0.23884656 -0.21975091 0.22234026 -0.2753891 -0.22031716 -0.11093402
-0.23273484 0.2105966 -0.2565764 -0.2200972 0.17155911 -0.29928252 0.17359903 -0.25252706
0.20466654 -0.3077563 0.18755937 -0.22548214 -0.19412759 0.20225587 0.17789531 0.1582415
-0.24698384 -0.1313096 0.12356548 -0.22206244 -0.25497082 0.20949939 -0.21967463 -0.22018388
0.17459206 -0.24246225 -0.22179818 0.104399785 0.15681803 0.094393596 0.105643004 0.18174547
00000000: 6e17 39be 5815 95be f4f5 553e 4688 76be
00000010: 5dd0 403e f506 223e d96c 273e cb27 43be
00000020: 6c87 483d 4e94 583e 387d 033e 19a7 27be
00000030: a4e5 73be 847c 1abe 58f6 5abe 50ba 573e
00000040: 1c59 6d3d aa9d 4fbe 47d6 493d c9c5 f43d
00000050: 9beb 153e 741f 4b3e 6bd7 4fbe 6555 5a3e
00000060: d7c8 8f3e c25d 63be 2cb3 f43d 81fa 463e
00000070: 3ff1 4f3e 074c 9d3d caf1 9cbe 97d1 f33d
00000080: 0cc7 eabd 427f 543e e51d 0e3e 9a4b 7a3e
00000090: 84fe 213e 8243 2f3e 34bb 7dbe 3e7f 313e
000000a0: 5256 5b3e 0efe 403e e3eb 043e ff96 67be
000000b0: ca82 7fbe ef5b 7ebe ca6c 6abe 4239 4dbe
000000c0: 2f65 4ebe ed32 133e 7bce 413e e8d2 4dbe
000000d0: 4f14 263e 762d 2c3e d076 78be 11ea 1f3e
000000e0: 9158 053e f91b 80be c567 4f3e cc7d 3abe
000000f0: a6ed c9bd 5d2d 39be 2d77 31be 798b 71be
00000100: 8670 3b3e 2d50 1abe 266a 8abe 6ecd 403e
00000110: 2135 303e 7198 073e f2e0 173e 4de2 2a3e
00000120: d21c 45be d2ca 3cbe a915 353e 4283 52be
00000130: 8e04 0c3e 80d1 1b3e c3f1 04be 5a8f 3a3e
00000140: e8f7 453e 1d53 483e 8ce3 213e 60a0 36be
00000150: 7eb3 0bbe 178a bcbd 68d5 523e 7654 12be
00000160: 5686 50be a2c1 443e 5367 60be 36d1 413e
00000170: 2a6e 373e 5fe6 033e b371 52be cbb4 66be
00000180: 7f60 483e d998 0e3e c148 ab3d c5c1 2c3e
00000190: 7aba fe3d f244 4b3e b916 3f3e ca50 2fbe
000001a0: 5259 163e 35d7 133e e2a1 393e cfa8 413e
000001b0: 3bfe 31be f678 83be a369 423e dc37 5e3e
000001c0: d607 85be 687f 23be 3d06 723e d357 363e
000001d0: d211 363e 425d 173e a89b 37be 2753 efbd
000001e0: 5af0 4fbe 312b 55be e391 273e c66d 4ebe
000001f0: 17a3 61be f7ea 093e c47e 293e c367 0d3e
00000200: 1e3f 5ebe 8403 4f3e 1e81 f73d 8b69 8cbe
00000210: a37e 5abe 14b3 0f3e 9996 5d3e adff 473e
00000220: d4ab 78be 4b28 183e 8475 1dbe d020 263e
00000230: 04a4 62be 6180 5cbe c10a 033e 428a 6bbe
00000240: 4090 28be 867b 583e 700d 65be 099c 413e
00000250: 77a2 513e fbd6 37be b09a 48be 2d6e 443e
00000260: cb28 89be b54c f53d 299f 1a3e a6eb 42be
00000270: 26a3 373e 7e11 103e 5148 303e 5e32 0bbe
00000280: 09c1 3ebe 7300 81be 24ab 4b3e 3e22 63be
00000290: e35e 393e e7ff 793e 5178 d1bd 1917 acbe
000002a0: d3b7 4e3e d361 2bbe 48bf 44be e587 3f3e
000002b0: 8f48 223e bc49 4c3e a24b 80be 7f40 013e
000002c0: 86b3 5cbe 12c6 4dbe 83bb 353e 0ce6 893e
000002d0: f912 0e3e 1129 13be 7d76 163e a112 46be
000002e0: e3fa 20be f53e 1a3e 0259 22be d322 7fbe
000002f0: ba42 283e 0208 293e af07 8fbe 62c5 89be
00000300: 1b04 68be 004b 45be b868 4b3e f3e1 23be
00000310: 349a 9cbe 9a84 273e b70d 1fbe cf09 493e
00000320: dd5d 3c3e 9cd7 0ebe 7829 1f3e b3dc 5ebe
00000330: 0e47 1e3e 47d3 38be 6899 173e d864 18be
00000340: 5945 323e 0559 5abe cdc4 32be ab65 37be
00000350: d902 4d3e e1b1 64be ea1b 70be 617c 50be
00000360: 2157 61be f088 393e 3194 743e 6206 61be
00000370: 2aad 633e cdff 8cbe d29a 61be 6031 e3bd
00000380: 0b52 6ebe a3a6 573e fb5d 83be 2961 61be
00000390: 31ad 2f3e 8f3b 99be f2c3 313e 3a4b 81be
000003a0: 1b94 513e 3c92 9dbe 900f 403e cae4 66be
000003b0: 62c9 46be 2a1c 4f3e 302a 363e 0f0a 223e
000003c0: 55e9 7cbe 0676 06be e60f fd3d 5664 63be
000003d0: 898b 82be 0287 563e 63f2 60be e277 61be
000003e0: 43c8 323e 0648 78be 101f 63be 8ecf d53d
000003f0: e894 203e 6e51 c13d 5c5b d83d 7c1b 3a3e
